etc/resnet.pt (torch, 730291 bytes, 77 tensors)

conv1.weight f4 [16, 3, 3, 3]
00000000: e424 83bb e672 ca3d c4a7 b03c a9ce 703d
00000010: 63f3 9bbe b9ca 30be 7277 c03d 984b 0dbe
00000020: 2d01 17bd c302 19bc 696a 21bd 79c0 28bd
00000030: 570e d03c bef5 bfbe 62d2 58be affb f83d
00000040: 46c8 1abe c014 56bd cf0d 123d 66af c53d
00000050: cf86 093e 675c 5a3d 364a 16be 55d8 8d3b
00000060: 052d 963d 2fb1 aebd 76e6 91ba 6dfb 5c3d
00000070: a680 4b3d cebc 953d 5af9 d73d 5e27 413e
00000080: 8419 bbbe 7d6f 6bbe fafb 2fbe 1186 913d
00000090: e17b 22bd f156 b23c 3d1b ccbc ce4d 1d3e
000000a0: bde9 e53e a80c cebe 537b 1bbd f059 253e
000000b0: 7e46 bc3d 15c8 26be 7d9b 59be e4a6 093e
000000c0: 2939 21bd 0c8a 523e f74e 76be b296 e53c
000000d0: 6ba7 243e e4f8 a9bb 404a 76bd bb5d aebd
000000e0: 587c 123e 3a36 20be 6986 e2bd ae48 8c3e
000000f0: de34 a3bd 9dab c1bd 54bc cb3d 5b3d c8bd
00000100: c743 84bd a411 7e3e 9077 8abe 512e 1fbe
00000110: ba96 cc3e c0b3 4fbe 7494 0cbe b295 533e
00000120: 1382 37be 35f8 97bd 6dfd 683e c29f 9ebe
00000130: ce6c cabd 5b8d ef3e 0dee 66be f60c 74bd
00000140: 0ecb b63e aa9e b436 39cd a936 ba9f abb5
00000150: 3bdb 3a37 2a25 3a37 1205 4537 e818 c836
00000160: b203 ea36 71c5 b136 c0d3 b436 0055 9435
00000170: 321e f8b6 013f 15b6 6a72 cdb4 3d57 89b6
00000180: 64f2 38b7 f3f6 ddb6 9f58 f6b6 0c2b ee36
00000190: 4db1 6437 33ec 1236 5cc5 53b6 e33c 0d37
000001a0: 5180 8836 cc46 14b7 1dff 2fb6 a452 c535
000001b0: dd72 19bd f60e 7c3e f92b bbbd 5ac2 c43e
000001c0: 221b a93e 0c29 9abd b738 3d3e 4fbe 763e
000001d0: 734e 2abe 0145 2bbe 32dd 51be 3e07 00be
000001e0: 2ed5 e0bd fe65 c2be 056e adbd 604f 773c
000001f0: adf7 fdbb aeec 143d aced cd3d 86ff 0f3e
00000200: 2352 103e 4ea5 12be a66f 12be fbb8 3f3e
00000210: abe1 99be 0bbb a7bd a49a 753d 9583 6ebe
00000220: e6ef 83bd 53a1 8b3d 5755 ddbe f564 b03e
00000230: 58a2 023e 9b1b 2e3c e763 103e 6ffb 853e
00000240: 6c65 f9bc 7963 013e 74d2 c6bd 97fb 5fbe
00000250: 7d33 933e 34f9 0fbe 2e92 96bc 17da 84be
00000260: c6ce cebd 3bf2 033e dbe1 3b3e 5f93 99bc
00000270: 23ff 893a c192 b53e 055d e9bd 25f7 c63c
00000280: 0a98 d1bd 1e1c 49be 1c25 f83b 2b82 3f3d
00000290: a98f 4bbd 203a 743d 8bcd 6f3e e778 e0bd
000002a0: 3a9e 2b3d c833 f03d 5357 8f3d 418f 51bc
000002b0: f503 9abc b6d7 88be 79be 1f3c 80cb e13d
000002c0: 05b3 d1be 2cc7 31bc d1e5 5fbd 8e15 80be
000002d0: 2986 363d 8574 0d3e b577 6dbd 47d7 153e
000002e0: 8b25 ba3e efba c6bd ec2a b13d 5aff 0f3e
000002f0: 3299 f4bd 844b d8ba 2bb6 f2bd ac46 5cbc
00000300: 9f84 88be 6d85 c8be d8f7 c7bd 5459 5abe
00000310: e433 debe 765e 9b3c 21dd bfbc ce73 9f3d
00000320: 89a8 11bd f68d 29bc b550 de3d dd84 063d
00000330: db59 b5bc e68d c5bd 999e 773c 9955 31bd
00000340: 9820 393e 0d1b 0abc 7d42 7d3e a8e9 f53e
00000350: 1d6a 2b3e ebec 823e 4ae8 873e e3c2 7f3d
00000360: 9e68 0c3e 3873 e9bd 978e 053e d829 9bbd
00000370: 1edb 92be a913 16bc d020 013e 3033 d7bc
00000380: 2bb8 4a3e 12e7 1b3e df9d 81bd 191c 013e
00000390: 6c8d e8bd 7955 8bbe f236 18bd 2c0c 1f3d
000003a0: 3a8b 9bbd eb9b ec3d 5912 743d c0bb 21be
000003b0: 2929 19bd 7e96 c5bd f3a5 84be 2381 d9bd
000003c0: e7b7 1a3c 3f6b 99bd 29d8 2b3d 213e 983d
000003d0: 0b01 603e 5dd8 6fbd a157 803d 5c7d c0be
000003e0: af17 69be f303 ea3c 9978 013e f115 2a3e
000003f0: c3fa e2ba c1a4 693e 4aa8 b53d 9f20 d4bc
-0.0040022004 0.098851964 0.021564372 0.058790836 -0.30459127 -0.17264833 0.093977824 -0.13798368
-0.036866356 -0.009339037 -0.03940812 -0.04119918 0.025397463 -0.37492174 -0.21174005 0.1215738
-0.15115461 -0.052265882 0.0356577 0.09652595 0.13430332 0.053310778 -0.14676747 0.0043287673
0.073328055 -0.08529889 -0.0011131305 0.053950716 0.049683236 0.07311402 0.10545607 0.18862674
-0.36542904 -0.22991748 -0.17185965 0.07105649 -0.03966892 0.021769973 -0.024915332 0.15361711
0.4490489 -0.4024403 -0.037959408 0.1614759 0.09193133 -0.16287263 -0.2125072 0.1344257
-0.039361153 0.20560473 -0.2405356 0.028025959 0.1607949 -0.005187141 -0.060129404 -0.085139714
0.14305246 -0.15645686 -0.11060793 0.273992 -0.07969068 -0.09456561 0.0994803 -0.097773276
-0.0645824 0.24811417 -0.27044344 -0.15545012 0.39958745 -0.20283413 -0.13728505 0.20662573
-0.17920713 -0.074203886 0.22752924 -0.3098126 -0.09884034 0.46787533 -0.22551747 -0.059582673
0.35701793 5.382889e-06 5.0604835e-06 -1.2786979e-06 1.11375075e-05 1.1095117e-05 1.17432955e-05 5.963364e-06
6.9741736e-06 5.2979963e-06 5.389069e-06 1.1051598e-06 -7.394491e-06 -2.2239403e-06 -3.8267473e-07 -4.093074e-06
-1.1023691e-05 -6.615062e-06 -7.341688e-06 7.097964e-06 1.363114e-05 2.1893181e-06 -3.1556328e-06 8.418431e-06
4.068054e-06 -8.837971e-06 -2.6225528e-06 1.4701695e-06 -0.037463058 0.24615082 -0.091392465 0.38429528
0.33028513 -0.0752736 0.18478666 0.24096034 -0.16631489 -0.16725542 -0.20494536 -0.12502763
-0.10978161 -0.3796844 -0.0846825 0.015094608 -0.0077504725 0.036358528 0.10055098 0.14062318
0.14093833 -0.14320871 -0.14300403 0.18722908 -0.30054983 -0.081899725 0.05996193 -0.23292382
-0.06442241 0.068178795 -0.43229172 0.34452024 0.12757242 0.010626699 0.1410061 0.2616839
-0.03044387 0.12635602 -0.097081095 -0.21873318 0.2875022 -0.14059907 -0.01838025 -0.2594764
-0.10098033 0.12885372 0.18347876 -0.01874703 0.0010528307 0.35463527 -0.11394695 0.02428777
-0.10234077 -0.19639632 0.007572783 0.046754997 -0.049697552 0.059625745 0.23418252 -0.1096056
0.041898943 0.117286265 0.06999078 -0.012790502 -0.018800715 -0.26727074 0.009750002 0.11025143
-0.40956894 -0.010850709 -0.05466253 -0.25016445 0.04456154 0.1381398 -0.05797549 0.14632903
0.36356768 -0.097036235 0.08650765 0.14062253 -0.11943282 -0.0016501998 -0.11851152 -0.013444584
-0.26663682 -0.39164296 -0.09764069 -0.21323138 -0.43398964 0.01896594 -0.023420872 0.0778576
-0.03556112 -0.0103487875 0.108552374 0.032841552 -0.022137573 -0.096462056 0.015113496 -0.043294523
0.1807884 -0.008429301 0.24732395 0.48029828 0.16739698 0.2557138 0.2654441 0.062441718
0.13711783 -0.11398929 0.13042675 -0.075763404 -0.28682798 -0.009159961 0.12610173 -0.026269525
0.19796817 0.15224865 -0.0632894 0.12608375 -0.11355099 -0.27213648 -0.037161775 0.038829967
-0.07594915 0.115531765 0.05958781 -0.15794277 -0.03739277 -0.09647845 -0.2590786 -0.10620334
0.00944326 -0.07491159 0.041954193 0.07433725 0.21875398 -0.05855595 0.06266714 -0.37595642
-0.22762941 0.028566336 0.1264366 0.16609932 -0.0017317164 0.22816755 0.08869989 -0.025894461

bn1.weight f4 [16]
00000000: 5c4a 023f 780e 643e 3f09 903e 5d60 18b2
00000010: 999f 433e e6cb 4c3e 9dff 613e c5b5 8b3e
00000020: b4ad 003f 151f 813e bd1c 883e 6fb3 4036
00000030: 897c 923e 7373 413e b7b1 9a3e 84b8 7e3e
0.50894713 0.22271144 0.28132054 -8.869475e-09 0.1910385 0.19999656 0.22070165 0.27287117
0.5026505 0.25219026 0.26584426 2.8714674e-06 0.28610638 0.18891697 0.3021371 0.24875075

bn1.bias f4 [16]
00000000: 2bcf fcbd 7f87 a93e 1d00 2f3e 2ee9 41b7
00000010: f39b a73d 1d09 c43e e527 073e 6ac3 473e
00000020: 9845 a7be 40e1 a73e d300 603e bf01 30b7
00000030: e384 483e e7aa 063d 49b3 2c3d 4c0f f03e
-0.12344202 0.33111188 0.17089887 -1.1557988e-05 0.08184042 0.38288203 0.13198812 0.19508138
-0.32670283 0.3278904 0.21875314 -1.0490824e-05 0.19581942 0.03287783 0.042163167 0.4688667

bn1.running_mean f4 [16]
00000000: 4777 143e 94b9 49bc 1508 2b3c 847c 0bb7
00000010: b4aa c43c 4c47 0ebd f43f 9abd 778f 14be
00000020: e8cf 2b3e 1b66 d6ba 9616 a03c 45cf a2b6
00000030: 6594 413d 3cab f43b 2451 0ebe fbcc f4bb
0.14498626 -0.012312312 0.010438939 -8.314037e-06 0.024007179 -0.034735963 -0.07531729 -0.14507852
0.16778529 -0.0016357334 0.01954202 -4.8521056e-06 0.04726066 0.007466702 -0.1389814 -0.0074707246

bn1.running_var f4 [16]
00000000: f356 a83e c264 513d 4fee 0f3f dfee 5b30
00000010: bb5d 353d 923c 8a3d 2348 233e 07c6 6d3e
00000020: d84e 793e 1adc a53d 81dd 033f 1fdc 892f
00000030: 67cf ee3d 9d72 e53d 082c 573e cbe1 3e3d
0.32878837 0.05112148 0.56223005 8.001119e-10 0.04427884 0.06749834 0.15945487 0.23220073
0.24346483 0.08098622 0.51509863 2.507656e-10 0.116606526 0.112035014 0.2101289 0.04660205

layer1.0.conv1.weight f4 [16, 16, 3, 3]
00000000: ab0f 81bc 43a8 d8bb f0f8 d4bc 02d2 afbc
00000010: c03f e5bc 7ed6 4dbd 155a 8a3d b9cd c23b
00000020: f87e 0d3d 8f62 83bd 4497 a83b daba a43d
00000030: e619 e9bc 07a7 e2bd 9ffd b73c 9e9d 4d3c
00000040: 4b51 09be cc15 3ebd e31c a6bc 095e abbc
00000050: 4ce7 943c b329 5bbd 64be 85bc 3f2e 68bc
00000060: f68b b0bc 3186 5f3c a463 bf3b 82f6 46b5
00000070: 7a96 18b6 19dd 8cb6 f076 e9b5 2c1a 2735
00000080: a5ff 99b5 8662 1436 c422 9fb4 1b0d 59b5
00000090: d5de d73d c9a3 10be 36d7 84be 08c8 493e
000000a0: 4059 a13b e5dc 43be 5765 693e 1a9c 453e
000000b0: 369f 893c d267 cabd 3fd8 16bd 8456 023d
000000c0: 18ad 2fbd 7ec6 cbba 4ad9 503d 44a7 0a3d
000000d0: ea60 abbb e264 ae3c 8a52 2cbd 7165 06bd
000000e0: 49f3 5ebd 9a89 b73b 7437 3ebb bb98 a4bc
000000f0: c9e6 1a3d d330 513c 9f8c 25bc 1602 86bd
00000100: 96c9 ac3d fc61 503d 53c8 a6bd 959c f03c
00000110: 9a40 ad3d c691 febd 6677 83bd 23e7 773d
00000120: 07e9 3bbd e6e8 7bbd c266 c2bd cac8 60bd
00000130: 1747 babd c194 8dbd 5427 b5bc 3fd0 02bd
00000140: 36e2 e8bc 0e06 2e3c 89c9 30bd 4f14 12bd
00000150: adab 3d3d fccc 393c b153 9abd 1d58 503d
00000160: ecd9 013d d2a5 49bd ba63 35bd 7256 eabc
00000170: 2a85 de3c c498 de3b 5136 18bd 14be 3bbc
00000180: 215f e8bc 2177 a1bd 7e4a 6fbd 7bc7 52b6
00000190: 8339 26b6 89b2 13b6 abc7 beb4 f36e 6336
000001a0: f9ed 4535 8132 05b6 2ac2 54b4 667b b935
000001b0: 3730 d6bd cc96 8c3c c329 5e3e 0a13 ecbd
000001c0: 3c37 bdbd de7c d13d f108 073c 8a32 b7bd
000001d0: 7d7c 8c3c f865 86bc 2d69 1a3b ce15 22bc
000001e0: a30e 3abd 205b 37bd 02b7 44bd 8d34 c2bc
000001f0: d66b dfbc b68f 57bc a935 fc3c 5d6c edbc
00000200: b081 16bd 4f12 973c 61da 08bd fd3f 42bd
00000210: cc8f 7b3d 6022 883c 6971 923a cd57 afbd
00000220: 2c62 563d 102a 403e b673 1ebe 4e75 01be
00000230: 0dc0 e73d c174 943c 2044 3fbe d834 e5bd
00000240: a27d df3d d2f8 3b3e 2c14 203b 9edf 963d
00000250: 102d d53d 33a7 9abd 1cdf 23be b220 4cbe
00000260: c1ff 12be ec91 803d f5b7 2cbd 52cd 75bc
00000270: 456c 0f3e f774 0ebe 9b5c 0fbe cd9f 73bd
00000280: 2d0c 9e3d f7cf 983d 18de 85bd 04ed 3d3b
00000290: 6c84 a93d d767 6cbd e9a9 7abb 90b0 f43c
000002a0: 3f6f 563d ccae 913a 7ff4 7bbd 6505 5a34
000002b0: 485a 3535 4721 9eb4 b898 60b5 ec33 ba33
000002c0: 35e0 75b5 6e6c 9a36 ebda 9336 ff72 1936
000002d0: 73e2 1bbd 9321 fdbd 5b73 1abd e71a 01bd
000002e0: 640d 34bd f7fd 383d 15bb b1bc 2174 26bc
000002f0: 5cdb 053e 827d 1cbd 040c 3a3b 8b6c b23d
00000300: cfaf 5abc 29dd 9ebd aea8 bf3d 46c1 373c
00000310: b364 0e3e bde8 f8bc 0398 ba3c feff a3bd
00000320: 1fe3 7abd 1221 12bc 5cec cbbd 90ec 3fbd
00000330: 477b 45bc d86f ee3c e430 1c3d e4ee 543c
00000340: 6b23 1e3d 87d9 3fbd da38 133c 9c6f 8fbd
00000350: 337e 81bd 0fc8 b23d 3da9 97bc 1228 843b
00000360: 194b 8f3a 0c38 933c 765a 563d 5b2c 56bd
00000370: ac4d de3c 16b2 0c3c 62d2 adbc befd 5abd
00000380: 73e9 19bd f034 b6bd 6164 55bd ffec 3fbd
00000390: a98e db3d 0550 d53d 8de4 b4bd f9f8 08bd
000003a0: 6ae0 84be 4ad5 dabd 926d 813d 0a6b 683d
000003b0: db8b 3e3d e119 cabd 6df5 34be aab8 d8bd
000003c0: 595c 3bbe 6963 7dbe a3f4 e6bd 71da 89b5
000003d0: ad68 00b6 9fea 5bb3 64b2 efb5 1029 12b5
000003e0: 3499 bbb5 326c 46b5 d182 61b6 1a6c c1b5
000003f0: 08b3 91bd b5c2 1ebd 45e6 acbc fe4f 8d3c
-0.015754541 -0.0066118552 -0.025997609 -0.021462444 -0.0279845 -0.050253384 0.06755463 0.005944934
0.034544915 -0.06415283 0.0051449854 0.080434516 -0.028454732 -0.11067014 0.022459803 0.012549786
-0.13409917 -0.046407506 -0.020277446 -0.020918863 0.018176697 -0.053506564 -0.016326137 -0.014171182
-0.021551114 0.013642834 0.0058407355 -7.4119464e-07 -2.2737354e-06 -4.1980643e-06 -1.7394468e-06 6.2250433e-07
-1.1473791e-06 2.2111067e-06 -2.9641353e-07 -8.085787e-07 0.10540549 -0.14124979 -0.25945443 0.19705212
0.0049239695 -0.19127233 0.22792564 0.1929783 0.01679955 -0.098830834 -0.036827322 0.03182079
-0.042889684 -0.0015546826 0.050988473 0.033850923 -0.005230059 0.021288339 -0.042070903 -0.032811586
-0.054431234 0.00560112 -0.0029024752 -0.020092359 0.03781775 0.012767988 -0.010104327 -0.065433666
0.08436887 0.050874695 -0.081436776 0.02937154 0.084595874 -0.12430148 -0.06419258 0.060523164
-0.04587653 -0.061501406 -0.09492256 -0.054878987 -0.090955906 -0.06913138 -0.02211348 -0.03193688
-0.028428178 0.010621561 -0.04316095 -0.0356639 0.0463063 0.011340376 -0.07535494 0.05086528
0.031701967 -0.049230404 -0.04428456 -0.028605673 0.027163107 0.0067931134 -0.037161175 -0.011458892
-0.028365673 -0.0788405 -0.05842065 -3.1408551e-06 -2.4769404e-06 -2.2008628e-06 -3.5535535e-07 3.3890217e-06
7.3734515e-07 -1.9847942e-06 -1.9814675e-07 1.3819488e-06 -0.10458415 0.01716175 0.21695618 -0.11527069
-0.09239051 0.10228895 0.008241878 -0.089451864 0.017149204 -0.016406044 0.0023561225 -0.009892894
-0.045424115 -0.044764638 -0.048026092 -0.023706699 -0.0272731 -0.013156822 0.030787306 -0.028982336
-0.036744773 0.018441347 -0.033411387 -0.047424305 0.061416432 0.016617954 0.0011172715 -0.085616685
0.052339718 0.18766046 -0.15473828 -0.12642404 0.11315928 0.018122079 -0.18678331 -0.1119172
0.109126344 0.18356636 0.0024426086 0.0736687 0.104089856 -0.07551422 -0.16003078 -0.19934347
-0.14355375 0.062778324 -0.042167623 -0.015002565 0.14006145 -0.13911806 -0.1400017 -0.05947857
0.07717166 0.07461541 -0.06536502 0.0028980384 0.082772106 -0.057716217 -0.0038248247 0.029869348
0.052352186 0.0011114716 -0.061512467 2.0304795e-07 6.755913e-07 -2.9454006e-07 -8.366874e-07 8.6707445e-08
-9.1595876e-07 4.6021805e-06 4.406427e-06 2.2865713e-06 -0.038057756 -0.123599194 -0.037707668 -0.031519797
-0.043958083 0.045164075 -0.021695653 -0.010159523 0.1307196 -0.03820563 0.002838851 0.08712109
-0.01334758 -0.07757027 0.09358345 0.011215514 0.13905601 -0.030384416 0.022777563 -0.08007811
-0.061251756 -0.008919017 -0.09957191 -0.046856463 -0.012053317 0.029106066 0.038132563 0.012996409
0.038607996 -0.04683831 0.008985722 -0.0700371 -0.06322899 0.087295644 -0.018513316 0.004033097
0.0010932415 0.017971061 0.052332364 -0.052288394 0.027136646 0.008587381 -0.021218482 -0.053464644
-0.03757615 -0.08896816 -0.052097682 -0.046856876 0.1072057 0.10415653 -0.08832655 -0.033440564
-0.25952464 -0.10685213 0.06319727 0.056742705 0.046520095 -0.09868217 -0.17671748 -0.10582097
-0.18296947 -0.24744953 -0.112771295 -1.027087e-06 -1.9134416e-06 -5.1203298e-08 -1.7858806e-06 -5.444899e-07
-1.3977174e-06 -7.391819e-07 -3.3603758e-06 -1.4411082e-06 -0.071142256 -0.038759906 -0.021105895 0.017250057

layer1.0.bn1.weight f4 [16]
00000000: c8c4 953e 755a 903e 73a8 8f3e a409 623e
00000010: 83e7 b53e 9871 943e f0de 5e3e fb91 633e
00000020: 61ce f13e 5dde 603e c4c0 813e f600 783e
00000030: db71 973e 19e7 8f3e 456c 903e e875 a23e
0.29251695 0.28194013 0.28058204 0.2207399 0.35528192 0.28992915 0.21764731 0.22223656
0.47227767 0.21959825 0.2534238 0.24219117 0.29579052 0.28106 0.28207603 0.3173058

layer1.0.bn1.bias f4 [16]
00000000: 181f e8bd c1e9 4c3e abb8 d3bd 29ab 1f3e
00000010: e871 a53e ed0d 95be 74f3 0a3e 3d8c 4c3d
00000020: 819a d2be 36c8 ad3e c6a5 a7bd 4355 223e
00000030: a3fb efbd 457e 0d3e f017 603e 0f9d 023e
-0.11334056 0.20011045 -0.10337957 0.15592636 0.32313466 -0.29112187 0.13569432 0.04993843
-0.41133502 0.3394181 -0.08185916 0.15852837 -0.11717918 0.13817699 0.21884131 0.12755226

layer1.0.bn1.running_mean f4 [16]
00000000: 80dc d4be 9234 9bbe e891 29be fe94 b3bd
00000010: 85a1 01be 367a 8b3e 645e b2be 5b8d 5fbe
00000020: 5270 c33e 7a02 4bbe 5a4e 55bd 17bc d2be
00000030: b2bc 77be b38c c8be 15ca cf3d 1e57 09bf
-0.41574478 -0.30313545 -0.16559565 -0.087686524 -0.12659271 0.27241677 -0.3483764 -0.21831267
0.3817163 -0.19825163 -0.052076675 -0.41159126 -0.24193075 -0.39169845 0.10145966 -0.53648555

layer1.0.bn1.running_var f4 [16]
00000000: b0ba 0b3d 5ec3 ce3d d531 323d f094 193d
00000010: a6fe ad3d b95a c83c 4375 393d 0ddd 0b3d
00000020: c636 593d 89f7 b23c 495f 303d 0b67 9d3d
00000030: fa71 ca3c 3b66 573d 046e 5f3d 46cb 1c3e
0.034113586 0.10095857 0.043504555 0.037495553 0.08495836 0.024457322 0.045277845 0.034146357
0.05303075 0.02184655 0.04305962 0.076856695 0.024712551 0.05258773 0.05454828 0.15311918

layer1.0.conv2.weight f4 [16, 16, 3, 3]
00000000: 96b1 543d 7afa c83c c687 373d 3cca 323d
00000010: fa76 2e3d e8a9 5e3d 876d 4a3d 133d 3d3c
00000020: 1bf7 273d f838 50bd 664b 55bd bf1c 75bc
00000030: 5439 88bc 9bde 87bb 012c 4c3d a4b9 763d
00000040: eab0 cd3d cc9c f13d 5d2f c9bb 6235 f23b
00000050: c2ae dcbc 312f 203b 866d 783c f228 5ebc
00000060: 08e4 c8bc 9c7d ed3b a520 b7bc f385 2ebd
00000070: ff83 85bb 7887 993d 4dae a0bd 48a1 8fbd
00000080: 628f 953d bce8 38bd c1be acbd 2dc8 5cbc
00000090: fb34 3a3d 9a2c b7bb e359 1c3d 910e 333c
000000a0: c3b6 cebb 2735 d7bc 44c8 2dbd 8944 25bd
000000b0: b7af 7cbc 39d9 d43a 29a1 1b3d 6ebe 953c
000000c0: 8e5c 7b3b 7e56 d43b ddf8 eaba 2d69 1ebd
000000d0: 5dd2 fabc 2da4 5abd 2509 86bd 2a6c 25ba
000000e0: 9379 f13c 95b5 12bd 5cbf 8a3d c163 883d
000000f0: 9eed 563b 82c2 803d ebc5 183d 6462 9b3c
00000100: 1054 083c 7ad4 853c a7b9 6b3c d488 b63b
00000110: a5ce dbbc d31d e93c 2557 1f3d 5d63 e93c
00000120: a25d f1bb 5f38 323b 0ad6 483d 87ab ef3c
00000130: 8235 803d 6d75 c93d 8a54 5e3c 3775 433d
00000140: d2c5 ae3d 7753 1b3c d8b6 af3b 41bd a9bb
00000150: 9eb5 0a3d da19 3dbd 4d92 5abd 9238 1d3d
00000160: 2f58 efbc 7541 77bd 8543 6abb 2ad1 753c
00000170: b423 f23c e1b5 64bc 8dd8 bc3c ce5f 423d
00000180: d92f 1cbd 23a4 cf3b 4544 183d 354d ebbd
00000190: 15dd c0bd 8d82 f8bd fd0e b7bc 05cd 95bc
000001a0: 2621 84bd 862d d03d be3c 633d 89fc afbc
000001b0: 41d4 61bc 9b2e 55bd eb4c 68bd 4ba8 303d
000001c0: f015 363a 7bec 373c ccf3 863d bdc1 1e3d
000001d0: aa4d fa3c 0b6b 133d 8e75 8b3c ab2f aabc
000001e0: 7725 abbc a9bb 5fbc b4a8 24bd 6682 853b
000001f0: 58f9 afbc a7e2 6dbd c390 ac3d 03a9 ad3d
00000200: ae4f 60bc d6a7 bbbc d958 793d 6162 723d
00000210: 71a0 aebd a815 b5bb 5d6e bd3c aa99 d53c
00000220: 5a88 c8bb b6f3 c4bd 12ab 7a3d a1f0 563b
00000230: 2cbd 95bd 6d21 423d 0be9 d33c 4bfe 38bd
00000240: cf2e ae3d 3b59 a33d 4a7a af3c 6526 b53d
00000250: 7e5d 213e 3d7a c53d 9dc1 2e3b 42a4 d83c
00000260: 86db 3d3d d379 bd3d fa06 0c3d 1e18 cebd
00000270: 0114 2bbe 85db e53c 385e 4f3d 6654 803d
00000280: be13 093c cb02 b93c 8f05 503c 4e36 3fbd
00000290: dd08 8dbd 5fe2 473c e724 84bc 01bb 4f39
000002a0: 699e 9bbd bc3e 79bd 3ef6 023d dc3c d83c
000002b0: 19f2 a73c 034a 023c 5a08 9a3d ac21 8c3d
000002c0: 2934 1b3d 302c 84bd c028 0bbc 0d2a abba
000002d0: e076 6bbd 5187 e93d a848 e8bc 8559 32be
000002e0: 26c4 a9bd f1fb ad3d a8b8 723d 31d0 3bbe
000002f0: 6f96 abbd 2350 24bd 6a61 03be 045b f3bd
00000300: 1899 ac3b 170a d9bd dbd1 d3bd d569 2d3d
00000310: 2b57 89bd 5d05 90bc 1f7d 45bd 3cdc 4a3d
00000320: 19fc 163e a246 b0bd 5943 cdbd e945 1b3c
00000330: bd8a b4bc 2513 aebc c5b9 5dbb c47f 43bd
00000340: eef8 69bd 478a a1bd 3f7d 90bc 61d4 84bd
00000350: 9c92 3ebd 5f85 d43c 8a13 94bc 6065 bfbc
00000360: 40b9 553c f978 523c 2346 73bd 1d49 77bb
00000370: 8098 35bc 071f 8abc 3c03 ad3d 42f6 993b
00000380: 21f0 0ebd 8998 943d 3c17 c8bd 75dd a9bc
00000390: ca39 56ba 5c05 cb3c 5278 17bd 6593 9dbd
000003a0: 67d2 7a3d 5b8b 6f3d b35e cb3c 0e35 7f3d
000003b0: bfe0 a93d de51 3b3c 28f4 113c e51e 213d
000003c0: 27d4 703c f2ed be3c 3bce 5fbc 7159 513d
000003d0: c9ea 46bd 7139 80bc 3b04 783d d68c ad3d
000003e0: abde a63d 7592 2ebd 1b7f 6e3d 72cb e83d
000003f0: 0571 733c f7d5 b1bc b37c 88bc edb5 4ebd
0.05192717 0.024533499 0.044807218 0.043649897 0.042593934 0.054361254 0.04942086 0.011550206
0.041007143 -0.05083558 -0.05207386 -0.014960467 -0.016628899 -0.0041464097 0.049846653 0.060235634
0.10043509 0.11797485 -0.0061396793 0.0073916176 -0.0269388 0.002444219 0.015162831 -0.013559567
-0.024522796 0.00724764 -0.022354433 -0.042608213 -0.004074573 0.07496542 -0.07845745 -0.07013184
0.07302739 -0.045143828 -0.08434821 -0.01347546 0.045460682 -0.0055900337 0.03817166 0.010928766
-0.006308408 -0.026270462 -0.042427316 -0.040348563 -0.015422753 0.0016239054 0.03799549 0.01827928
0.0038354727 0.0064800372 -0.001792695 -0.038674522 -0.030617887 -0.053379226 -0.06544713 -0.0006310368
0.029476916 -0.0358177 0.0677478 0.066596515 0.003279544 0.062870994 0.037298124 0.018967815
0.008320823 0.016336668 0.014387525 0.0055705104 -0.026831934 0.028456604 0.038901467 0.028489763
-0.007365898 0.0027194244 0.04903225 0.029256595 0.06260206 0.0983685 0.01356996 0.047719207
0.08533825 0.009480349 0.005362373 -0.0051800315 0.03386461 -0.046167232 -0.05336218 0.038384028
-0.029216854 -0.06036516 -0.0035745811 0.015003482 0.02955804 -0.013959379 0.023052478 0.047454648
-0.03813157 0.0063367053 0.037174482 -0.114893354 -0.09417168 -0.121342756 -0.022346014 -0.018286237
-0.06451635 0.10164933 0.05547785 -0.021482723 -0.013783515 -0.0520464 -0.05671398 0.043129247
0.0006946018 0.011225815 0.06589469 0.038758982 0.030554611 0.035990756 0.017023828 -0.020774683
-0.020891888 -0.0136555815 -0.04019995 0.0040743826 -0.021481201 -0.05807748 0.084260486 0.08479502
-0.013690872 -0.022907179 0.060875747 0.059175853 -0.085266955 -0.0055262633 0.023123914 0.02607425
-0.00611977 -0.09616797 0.0611983 0.0032797235 -0.07311472 0.04739516 0.02586796 -0.045164388
0.08505022 0.07976004 0.021420617 0.08845214 0.1575832 0.09642456 0.0026665695 0.026445512
0.046351932 0.09251752 0.03418634 -0.10063194 -0.1670685 0.028058777 0.050626963 0.06266098
0.008366523 0.02258434 0.012696638 -0.04668265 -0.06886456 0.012199967 -0.016130878 0.00019810723
-0.07598574 -0.060850844 0.031973116 0.026396208 0.020501183 0.007952216 0.07521124 0.0684236
0.03789154 -0.064537406 -0.008493602 -0.0013058797 -0.057486415 0.11402763 -0.028354958 -0.17416961
-0.082893655 0.0849532 0.059258133 -0.18341137 -0.08378302 -0.040115487 -0.1283013 -0.11882594
0.0052672736 -0.105976276 -0.10342761 0.042337257 -0.06706079 -0.017580682 -0.048215028 0.049526438
0.14744605 -0.08607222 -0.10022611 0.009477117 -0.022038812 -0.021249363 -0.003383265 -0.04772927
-0.057122163 -0.078877024 -0.017637847 -0.064858206 -0.046526536 0.025942503 -0.018075723 -0.023363769
0.013044655 0.012846225 -0.05939306 -0.0037732788 -0.011083722 -0.016860498 0.084478825 0.0046985457
-0.034896974 0.07255656 -0.097700566 -0.020735482 -0.00081720634 0.024782829 -0.03697998 -0.07694129
0.06123581 0.05848251 0.02482543 0.062306456 0.0829482 0.011433093 0.008908309 0.039336104
0.014699019 0.02330682 -0.013660009 0.05111069 -0.048563752 -0.01565239 0.06055091 0.08474128
0.08147939 -0.04262014 0.058226686 0.11366929 0.014858489 -0.021708472 -0.016661024 -0.050466467

layer1.0.bn2.weight f4 [16]
00000000: ff2f 503e 7dbf 9a3e 8cbd d93e 4014 d03e
00000010: ef7b ef3e 8720 dc3e 165a f53e f94a 613e
00000020: 2da6 cf3e 3638 9f3e 9213 a13e 7e8b ec3e
00000030: 4548 c23e b62f ac3e 2ba1 223e 6065 823e
0.20330809 0.3022422 0.42527425 0.4064045 0.4677424 0.42993566 0.47920293 0.22001256
0.4055647 0.31097573 0.31460243 0.46200174 0.37945762 0.3363015 0.15881793 0.25467968

layer1.0.bn2.bias f4 [16]
00000000: 0431 dcba 751a 22be a316 c9bd 4e81 06bd
00000010: 38e7 86be 10c8 9fbc 721f 713d f7d9 c33e
00000020: 6150 ca3d d583 96bd 1cd6 57be 5df4 913e
00000030: 5817 7abe 2748 21bd d6d0 553e 9929 8bbe
-0.0016799276 -0.15830405 -0.09818771 -0.03283816 -0.2634828 -0.019504577 0.05886788 0.3825223
0.09878612 -0.07349364 -0.2107777 0.28506747 -0.24422967 -0.03937545 0.20880446 -0.27180174

layer1.0.bn2.running_mean f4 [16]
00000000: c8e8 ae3b 01dd aa3b b2a0 1bbe 309d 47bb
00000010: cad6 04bd 285c c43c 7e46 e73d a7af 11be
00000020: 7504 b03d fbec 413d b8dc 8dbd 7ae3 553d
00000030: c817 c03d 7623 203d 7c43 d4bc ab9b ae3d
0.0053378083 0.005214334 -0.15198019 -0.0030458681 -0.0324314 0.023969725 0.11292742 -0.14227162
0.085946 0.047345143 -0.069268644 0.05221889 0.09379536 0.03909632 -0.025911085 0.08525785

layer1.0.bn2.running_var f4 [16]
00000000: f029 173d a677 0b3d d989 b73d 25ad 5b3d
00000010: 8ba1 0e3d 431c 393d 0893 bf3d 764b 3c3d
00000020: 2859 c73d 2ed3 203d 2017 5d3d f53a c03d
00000030: 372a 0d3d c40b 183d 7271 0b3d 1130 8f3c
0.03690523 0.034049653 0.08961839 0.05363192 0.034822028 0.045192968 0.09354216 0.045970403
0.09733802 0.039263897 0.05397713 0.09386245 0.034464087 0.037120596 0.034043737 0.017478975

layer1.1.conv1.weight f4 [16, 16, 3, 3]
00000000: 323d 03bc 72cb 99bc e8be 9f3d 38d6 60bb
00000010: c27c 8ebc ab68 803d fb2f 963d c47b 13bd
00000020: 1ea5 9c3d 91e9 a7bd b5e8 8e3d c77e 02bd
00000030: e330 8f3c 5bc8 41bc c22e a7bd 1774 95be
00000040: e481 4bbd f18a 28bb a2a2 2bbe 14c1 f3bc
00000050: 2ab5 73bc 57ee 52bd 8430 973d 8ecf a6bc
00000060: 49a6 073e b7e9 553d 2460 6cbd 756d 2c3d
00000070: ecef 8d3c 8e8c 4cbd d2b7 343c 3f0e 5a3c
00000080: 70aa 333c a398 a8bd 8417 ae3c 6e1b 423d
00000090: 8207 193d 1229 5dbd 19c5 bb3b e91b 5dbd
000000a0: 2b4c 4e3d 4d94 f8bd 3cf1 4b3c 61b4 eabd
000000b0: 6693 b9bd 7d64 4dbe f1f3 13bb 3452 30be
000000c0: fd82 3cbd 61a5 c2be 0dd0 e43c 32d1 53be
000000d0: dec2 893b 2e1a 8abd 7ce2 ad3d 0999 063c
000000e0: 2adb aabd 6c68 553e d0a2 acbd d7f3 933c
000000f0: 2dda 1ebe c2b6 843d 595e a6bb d33c 923c
00000100: 74d6 62ba 0d29 153b eabd 32bc 5af7 afbc
00000110: dbaf 123d 5bd6 cf3a fb60 0cbc ccb9 183a
00000120: c441 c4bd 217f b63d ca76 7a3c 1b33 73bd
00000130: 90a6 e03d ce6f d53c 8739 f73b 43d8 adbd
00000140: cc36 0f3c a595 d9bc 1aa9 ccbc 779e 883c
00000150: 1588 ceba e0bc f33d 7355 503c 9a05 a63d
00000160: cafa a6bc 384c 2e3d d692 43bd ed87 35bd
00000170: 5e4e d5bc 05be 543d 18ea 6fbd 026f 04be
00000180: fc78 fb3c 07f5 48bc 3c75 9ebd ba15 24bc
00000190: 189b 3bbd d439 c63b a01c e3bd d4fd e83d
000001a0: 7062 283d cd6f 5abd 44f4 5ebd d5ac 823c
000001b0: 59e7 47bc 3b12 bf3b c885 913b 4225 b53c
000001c0: f535 b1bc eaf0 01bc d9ad 2ebc c247 c4bc
000001d0: e1da b5bc bb63 3cbe bb80 2f3d 61f6 5bbd
000001e0: 6594 a4bd 8364 0ebb b0e6 bcbc f8e2 b1bd
000001f0: ccaf df3b a896 7cbd 6252 583d c2c4 1cbd
00000200: eade 01bd 3b37 2e3c 7800 c1bc ae9e 1abd
00000210: 3014 cc3c d87f 1f3d 5c25 823d c8af a33b
00000220: 68e6 75ba 22b7 c73c 66cb 65bb 4dff 3a3d
00000230: 5b3a a53c 7e5e 9f3d 0ed6 abbd 01db cabc
00000240: a58d e43b 2d58 693d 0f60 6fbc 27b2 ea3c
00000250: 2760 3a3d 750c df3c ff3d eabc 43fb e03c
00000260: af58 ecbb cb61 28bd fd70 243d 632b 183c
00000270: d476 c1bd f795 bc3c 8130 863d 47be 1fbd
00000280: 09a4 91bd 2983 9abd fcc5 bbbd 536e 76bc
00000290: 7495 e53d 059f 89bd 9cac a2bd 99da 36bd
000002a0: 89b3 c93b 0204 9d3c 8636 4b3d f4d9 b4bc
000002b0: e4f1 95bd 5d05 33bd bc76 a13c 32f2 1b3d
000002c0: c66c 503d 259b 353d f28d d8bc e773 9b3c
000002d0: 2a0e 0c3e 5e8a 40bb 8a04 6fbc 5d2b 813d
000002e0: 561c 9c3b 6aa1 04bc c75a 573d e83c ac3d
000002f0: 9e87 acbb 4df5 6ebd f930 c0bc 6a75 22bd
00000300: 40b3 2a3d c36f 373e afd0 35ba f98a b1bc
00000310: 4528 debd 46f0 e3bc b667 35bd fb0d 9abc
00000320: e7e7 7d3b 68dc 04be 066a df3d 60ba 20bc
00000330: 2160 50bc 1b4f 9f3d f8bf 2abd 17d5 023d
00000340: 579c 833c e503 77bd 0cd4 173d 5b77 353d
00000350: dd59 d8bc c8b5 5e3d c083 ff3c 5156 a33c
00000360: 26d7 35bc 5da5 3fbe 23f7 d23c 9fdf b73c
00000370: 47b9 36be b225 8cbc f425 75bb 32a9 0dbe
00000380: 25a8 f6bc 52c1 27bb 3ef6 07bd ac56 30bd
00000390: f6fb a7bd dab4 ebbd 2f85 cabc 33b4 42bc
000003a0: 8202 b03b 2588 87bd 6e2e 39be 1d8f 45be
000003b0: cb38 e9bd 39ec 45bd b800 d4bd f694 1abe
000003c0: 773f 7dbc d040 f4bb 8452 83bd d91f c7bc
000003d0: fed1 453d 04a1 56bc 0805 30be 0939 46be
000003e0: 7442 55be 845e 27bd ad8e 31bd b1e3 51bc
000003f0: 3010 cebc 6ddd b33d 61da 963d 08ec 65bd
-0.008010196 -0.018773768 0.07800084 -0.0034307372 -0.017393474 0.06269964 0.0733337 -0.036006704
0.07648681 -0.08198846 0.06977979 -0.031859186 0.017479366 -0.011827554 -0.08163215 -0.29190132
-0.04968442 -0.002571758 -0.16761258 -0.029755153 -0.014874736 -0.05149683 0.073823005 -0.020362642
0.13247027 0.05222484 -0.057708874 0.042096574 0.017326318 -0.04993873 0.011030154 0.013309061
0.010965928 -0.08232238 0.021251447 0.04738944 0.037360676 -0.053994246 0.005730283 -0.053981695
0.05036561 -0.12137661 0.0124476515 -0.11460186 -0.09061317 -0.20057864 -0.002257582 -0.17218858
-0.046023358 -0.380168 0.027931238 -0.2068527 0.004204138 -0.06743275 0.08490464 0.008215197
-0.083425835 0.20840615 -0.084294915 0.018060608 -0.15512915 0.06480171 -0.005077165 0.017851269
-0.0008653172 0.0022760064 -0.010909537 -0.021480251 0.03581224 0.001585673 -0.008568044 0.0005826026
-0.09582856 0.08910967 0.015287111 -0.05937491 0.10969269 0.02605429 0.0075446996 -0.08488514
0.008741092 -0.026560614 -0.024982978 0.016677124 -0.0015757108 0.119012594 0.012715685 0.08106537
-0.020383257 0.042553157 -0.047747456 -0.044319082 -0.026038345 0.05193903 -0.05857286 -0.12932971
0.030697338 -0.01226545 -0.077372044 -0.010014946 -0.045802206 0.006049374 -0.11089444 0.11376539
0.041109502 -0.053329278 -0.05443217 0.015951553 -0.012201154 0.0058310307 0.004440997 0.022112492
-0.021632174 -0.007930974 -0.010661566 -0.023959998 -0.022199096 -0.18397419 0.042847376 -0.053701762
-0.080361165 -0.002172739 -0.02305922 -0.08685869 0.0068263765 -0.061667114 0.05281294 -0.03827358
-0.031706728 0.010633285 -0.023559794 -0.037748985 0.02491197 0.03894028 0.06354782 0.00499532
-0.00093803415 0.024379317 -0.0035063862 0.04565363 0.020169428 0.07781695 -0.08390437 -0.024762632
0.006974893 0.056968857 -0.0146103045 0.028649403 0.045501854 0.02722762 -0.028594015 0.02746356
-0.0072127203 -0.041108888 0.040146817 0.009287688 -0.09446493 0.023020728 0.0655222 -0.038999822
-0.07111365 -0.07544548 -0.09168622 -0.015040952 0.112101465 -0.06719784 -0.07943079 -0.044642065
0.0061554355 0.01916695 0.049612544 -0.022076584 -0.073215276 -0.043706287 0.019709937 0.038072772
0.050884984 0.04433741 -0.026434872 0.018976165 0.13677278 -0.0029379348 -0.014588485 0.06307099
0.00476412 -0.008095125 0.052576806 0.084100544 -0.0052651903 -0.058339406 -0.023460852 -0.039662756
0.041674852 0.17913727 -0.00069356983 -0.021672713 -0.108475246 -0.027824532 -0.04428836 -0.018805495
0.003874296 -0.12974703 0.10908894 -0.00981006 -0.012718231 0.0777876 -0.041686982 0.0319415
0.01606576 -0.06030645 0.037067458 0.04430328 -0.026410038 0.05437258 0.031190753 0.01993862
-0.011098659 -0.18715425 0.02575261 0.022445498 -0.17844115 -0.017107818 -0.0037406655 -0.13834074
-0.030109474 -0.0025597406 -0.03319382 -0.043051407 -0.082023546 -0.11509104 -0.02472171 -0.011883783
0.0053713927 -0.066177644 -0.18084118 -0.19292875 -0.113877855 -0.048320983 -0.103516996 -0.15095887
-0.015457026 -0.0074540153 -0.06412223 -0.024307178 0.048295967 -0.013099913 -0.1718942 -0.19357695
-0.20826131 -0.04086162 -0.043348957 -0.0128106335 -0.025154203 0.08782468 0.07365871 -0.0561333

layer1.1.bn1.weight f4 [16]
00000000: bba2 893e 20da b83e 6540 7c3e 0c62 923e
00000010: 45ff 7c3e cb09 9f3e 7929 ab3e 05a1 883e
00000020: a81e 5f3e b95a 9b3e ceb8 953e 217a 8d3e
00000030: 9b31 aa3e cbc8 873e 1986 8b3e 4943 8c3e
0.26881966 0.36103916 0.2463394 0.2859043 0.24706753 0.3106216 0.3343008 0.26685348
0.21789038 0.30342653 0.29242557 0.2763224 0.3324097 0.2652038 0.27250746 0.27395085

layer1.1.bn1.bias f4 [16]
00000000: daed 63ba f2fc d2bd 41a3 c2bd 9627 90bd
00000010: 8032 713d 13e0 55ba 670a 4b3c d170 0cbe
00000020: ba91 f6bd 0ee9 e2bd 99ff 43be f8ef 71be
00000030: 8086 b0be e3e6 163e 0970 2d3e c51a 9abc
-0.00086948054 -0.10302152 -0.095037945 -0.070388004 0.05888605 -0.0008158695 0.012392617 -0.13714911
-0.12039514 -0.11079608 -0.19140472 -0.23626697 -0.34477615 0.14736514 0.1693727 -0.018811593

layer1.1.bn1.running_mean f4 [16]
00000000: a567 14bf 725e 26bf 9fec dabe d9aa 92be
00000010: 6f28 cdbe 865d 3fbf 01c4 1bbf a3bb e43d
00000020: 8449 53be 03d5 63be b654 e3be ef7c 55be
00000030: a460 28be 96ef bbbe 7c2e b7be e681 02bf
-0.5797065 -0.6498786 -0.42758653 -0.2864597 -0.4006991 -0.7475208 -0.60845953 0.11168601
-0.20633513 -0.22249226 -0.44400567 -0.2084844 -0.16443115 -0.36706227 -0.35777652 -0.5097946

layer1.1.bn1.running_var f4 [16]
00000000: 2169 4c3e 7598 883e c174 063e 23ce 5e3e
00000010: 19ff 0e3e 25b8 bb3e 361a 903e 7d9f a33d
00000020: b5b6 a13d c2a4 633e a9b2 ec3d 7f4e 963d
00000030: b312 803d 6566 023e c046 8a3e 037c 063e
0.19961978 0.26678815 0.13130476 0.21758322 0.139645 0.3666393 0.28144997 0.07989404
0.07896177 0.22230819 0.11557514 0.07339191 0.062535666 0.12734373 0.27007103 0.13133244

layer1.1.conv2.weight f4 [16, 16, 3, 3]
00000000: 2c4c 4dba bb0f 8bbc c2a2 4ebc 1fe4 813c
00000010: a513 183c 728e 40b9 dd75 80ba 0c30 00bc
00000020: aca5 653c 5bfd 5c3d 1b59 1c3d a676 103d
00000030: 33ed 4ebd 618c 02bb 6331 34bc eaa2 16bc
00000040: b8c6 cebc 1a13 86bc bcd7 d9bc ce45 d1bc
00000050: d72f c1bc 5a15 71bd 68a0 37bd c343 06bd
00000060: fb57 3f3b d21c b6bc 267c 5d3b 435b 633c
00000070: 6409 dc3a bb39 64bd 0880 0d3d c7a8 963d
00000080: a106 94bb 885b 79bc 97e7 bc3c cd55 96bc
00000090: 17ad e63c 60b4 0abc cfe7 23bd f647 f33c
000000a0: 3706 f4bc d2aa 63bd a959 12bd 86bf 9dbd
000000b0: f9fb 46bd e94b 173c 1b67 03bc 7301 7a3c
000000c0: 21e4 b83b b165 ef3a 3aee 24bd d952 b2bb
000000d0: b036 05bd 4194 29bd 9967 eebc 95fc 26bd
000000e0: 7f1a 5bbc d24b b8bc fa77 48bd 75b4 893c
000000f0: e3dc 47bd 4346 87bd 44d5 823b 5d56 9a3c
00000100: e5b2 58bc 87f0 a73c 4bc1 d13c 4293 a03c
00000110: eb02 db3c 6066 fb3b 6e2e 36bc 67fd 723d
00000120: 2151 12bd 7238 acbc f3fe 093d a99b 683a
00000130: c7cd dc3c f364 823d e874 2f3c 308e 3d3d
00000140: 8882 873d b4c7 2bbd 9731 4fbd 9906 bd3c
00000150: ac88 0bbd 18d2 423d 5a4b 37bb 5fba 5fbd
00000160: 5597 05bd 95bb 56bd 22de 093c b8dc 9fbc
00000170: d9d3 f4bc b2a3 8fbc 5f33 3cbc 78fb 42bc
00000180: a3f9 10bd 2018 a6bc 8811 beba 2dd0 953b
00000190: 062a d1bc 33e2 b4bc 33f8 0f3b 6a40 ac3b
000001a0: 4061 473c 0b98 043b 4e0d 173d 82b6 383d
000001b0: 9b94 7e3d c84f 743d 4d43 1e3d a950 913c
000001c0: 8b2f 7f3c ac23 c53a ad76 5e3c fc9b 683c
000001d0: fb74 57bb 65dd 7e3d 9e25 433d 7d51 613d
000001e0: d86d c1bc 940a a9bc 5893 3d3b 6a12 a3bc
000001f0: b5f3 b2bc 7866 23bd 3c72 243d a8e8 9d3c
00000200: 68ef 133d 7f61 a0bc a9b4 40bc 5370 213d
00000210: a256 56bb c7e7 a23d 38d0 bf3d 4568 a9bd
00000220: 3b5d 67bd e1f8 25bd b881 dd3a a37f 813c
00000230: d318 7e3c b79f 0abd 77f1 883c 92d9 1f3b
00000240: ac10 4a3c b0a7 033e f4d8 cebd 784a 43bd
00000250: 262d f13d fa63 c43d f931 8c3c 140f acbd
00000260: e325 df3d 130d 7dbc 932b 32be 7acd 593d
00000270: 29a3 f33d da4d 56bc dd1b c2bd 5da0 913d
00000280: cfba 513d f78b cdbc 3cf5 b03b 2837 c63d
00000290: 3fbf 753d ec35 803d efe1 3f3d 8328 b33d
000002a0: ef81 83bc 2ac3 5a3d 0ff4 363c 3017 8f3c
000002b0: 3e71 8d3d 2e0c 3fbc 2c45 083e 9955 2a3e
000002c0: 7574 05bb f43f d8bc 5add 0a3e ded9 423d
000002d0: 0120 07be ae8c 83bd 58a4 163e 491f bb3d
000002e0: 320b c0bd 354a 823d 4e40 213d 907c 253c
000002f0: 68ff 29bd 247d fbbd 4edf 523d f130 243e
00000300: 2f06 dcbc a0da d8bd ceb9 043c 8b40 f13d
00000310: 293f 793d 3b48 03be f216 0ebd 91ff f73c
00000320: d23b 383e efda ce3b 0bdf 82bd 05df 73be
00000330: 7beb 113d e6d8 06bd ed6d aabc 1410 fcbd
00000340: b38c 40bd 1112 fc3b a97b 85bd 3a4c 2a3c
00000350: 5129 56bd 737e aebb 4b15 73bd 0ef9 cebc
00000360: 6dc2 b2bc 20c8 babd 2015 5abd 516b 3ebd
00000370: 76ab 00bd 0971 edbc e743 d7bc 3ffb f63b
00000380: 8e16 8d3b d867 a33c 3dc0 673c 1f3d 77bd
00000390: 64b1 e3bd ff73 0bbd 9163 dcbc 8d25 33bd
000003a0: e458 e83b 54d0 d7bc 078a babc cd26 25bd
000003b0: 6c29 21bd 87ae 8c3c 3830 9bbb 6d1f d3bc
000003c0: 07e6 46bd 4a35 31bd ce4f 3abd 2bed 743d
000003d0: a725 623d fc0d e03c 331f 19bd 6cf7 6f3b
000003e0: e93f d73c ad61 cabc 899b b7bc 2083 aebc
000003f0: 82af 4dbc 34c9 ecbc 1582 23bd aa94 eebc
-0.000783148 -0.016975274 -0.012612047 0.015855847 0.009282027 -0.00018363612 -0.0009800751 -0.007823955
0.01401655 0.053952556 0.038170915 0.035269402 -0.05051918 -0.0019920098 -0.010998103 -0.009194115
-0.02524124 -0.01636653 -0.026592128 -0.02554598 -0.023582382 -0.058858253 -0.04483071 -0.032779466
0.0029196728 -0.02223054 0.0033795922 0.013876739 0.0016787467 -0.05571912 0.03454593 0.073564105
-0.004517392 -0.015219577 0.02305965 -0.01835146 0.028158708 -0.008465856 -0.04001599 0.0296974
-0.02978812 -0.05558283 -0.035730038 -0.07702546 -0.048580144 0.009234407 -0.008020188 0.015259135
0.0056424295 0.0018264559 -0.040266253 -0.005442005 -0.032522857 -0.04140115 -0.029102134 -0.040768225
-0.013373016 -0.022497091 -0.048942544 0.016809681 -0.04879464 -0.06605198 0.0039927084 0.01884001
-0.0132262455 0.020500435 0.025604865 0.019601468 0.02673479 0.007672116 -0.011119468 0.059323695
-0.0357219 -0.021023009 0.033690404 0.0008873293 0.026953591 0.06366911 0.010709025 0.04627818
0.06616694 -0.0419385 -0.050584402 0.023074435 -0.034065887 0.047563642 -0.0027968497 -0.054621097
-0.032615025 -0.052424986 0.008414777 -0.019514427 -0.029886173 -0.01753411 -0.011486857 -0.011900775
-0.035394322 -0.020275176 -0.0014501074 0.0045719356 -0.025532734 -0.022080516 0.0021968007 0.005256702
0.012169182 0.0020232226 0.036877923 0.045095928 0.06215344 0.059646398 0.0386384 0.017738657
0.0155753 0.0015040538 0.013578099 0.014197346 -0.0032876122 0.062222857 0.047643296 0.055009354
-0.023611948 -0.020634927 0.0028926935 -0.019906241 -0.021844724 -0.039892644 0.040148005 0.019275978
0.036116987 -0.01957774 -0.011761823 0.03941376 -0.0032705446 0.07954364 0.093658864 -0.08271841
-0.056485396 -0.040520553 0.0016899621 0.015807932 0.015508848 -0.033843722 0.016716702 0.0024391157
0.012333076 0.12856936 -0.10099974 -0.04767844 0.117761895 0.095893815 0.017113673 -0.084013134
0.10895898 -0.015445012 -0.17399435 0.053174473 0.11896355 -0.013080085 -0.09477971 0.07110665
0.051203545 -0.025091155 0.005400328 0.09678489 0.05999684 0.06260285 0.046846326 0.08747961
-0.016053168 0.05340878 0.011166587 0.017467111 0.06906365 -0.011660619 0.13307637 0.16634215
-0.0020363603 -0.026397683 0.13561001 0.047571056 -0.13195802 -0.06423317 0.1471113 0.091368265
-0.09377135 0.0636181 0.039367966 0.010100499 -0.04150334 -0.12279728 0.05148249 0.16034295
-0.026858417 -0.105885744 0.00810094 0.11779889 0.06085125 -0.12820522 -0.03468985 0.03027323
0.1799157 0.00631272 -0.06390198 -0.23815544 0.035624962 -0.032921694 -0.02080437 -0.12307754
-0.04700918 0.0076925834 -0.06517727 0.01039415 -0.052285496 -0.0053251325 -0.05934648 -0.025265243
-0.021821225 -0.09120202 -0.053242803 -0.046489064 -0.031413518 -0.028984563 -0.026277496 0.007537275
0.0043056672 0.019946977 0.014144954 -0.060361024 -0.11117819 -0.03404617 -0.026902946 -0.043736983
0.0070906747 -0.026344456 -0.022770895 -0.040320206 -0.039346144 0.017173065 -0.0047359727 -0.02577182
-0.048559215 -0.04326371 -0.045486264 0.059796494 0.05521169 0.027350418 -0.03738327 0.003661598
0.026275592 -0.024704779 -0.022413032 -0.02130276 -0.012554051 -0.028904535 -0.039918978 -0.029123623

layer1.1.bn2.weight f4 [16]
00000000: 8fa0 cd3d a29f f23e 03af 833e ad6f 8d3e
00000010: f6b4 ea3e a132 e23e c4bc cb3e c7ca 3b3d
00000020: a56e f03e 24e2 933e d4c4 b13e db5e d43e
00000030: 3bc6 853d 88e2 e33e 944e b53d ac78 593e
0.1004039 0.47387415 0.2571946 0.27624264 0.45841187 0.44179252 0.39792454 0.04584768
0.46959415 0.2888347 0.3472048 0.4147862 0.0653195 0.44508767 0.08852878 0.21237439

layer1.1.bn2.bias f4 [16]
00000000: ad3d 6a3d e0cc 91be 4e73 5dbe d564 bbbd
00000010: 6e78 b3bd d5c2 08bf 2586 9fbe a615 4a3d
00000020: a9d3 91be 6c37 a3be b2e0 f4bc 838c c4be
00000030: e193 c93d 34ec 03be bb2d 2a3c fa60 94be
0.057187725 -0.2847662 -0.21626016 -0.091500916 -0.087632045 -0.5342229 -0.31157032 0.04933705
-0.28481796 -0.3187822 -0.0298923 -0.38388452 0.09842659 -0.12883073 0.01038688 -0.28980237

layer1.1.bn2.running_mean f4 [16]
00000000: 4ad0 afbc 11d8 d53a 028b 563c 02bd 45be
00000010: 2d56 293d c547 7bbc 2685 973d 6802 983b
00000020: d4b8 0fbd e1ee ecba f6f1 2e3d da06 f7bc
00000030: 47df c53c cd23 853c f72a a8bc 17cf 4cbd
-0.021461625 0.0016315003 0.0130946655 -0.19310382 0.04134195 -0.015336935 0.07398443 0.0046389587
-0.035088375 -0.0018076563 0.04271122 -0.030154634 0.024154318 0.016252423 -0.0205283 -0.050002184

layer1.1.bn2.running_var f4 [16]
00000000: e6d5 dd3b 626f 103d c4a0 6b3c de52 3b3c
00000010: 7e28 f73c e78b b43c c5fc 0e3d aeac 943b
00000020: 77d5 063d 401f 853c 63ad 133d 461c 203d
00000030: ea33 563b 44fb 0d3d 612c c13b a3b6 b43b
0.0067698834 0.035262473 0.014381591 0.011433331 0.030170675 0.022039367 0.03490903 0.0045371866
0.03291842 0.016250253 0.036054026 0.039089464 0.0032684752 0.034663454 0.005895183 0.005514936

layer2.0.conv1.weight f4 [32, 16, 3, 3]
00000000: 91cf 88bd 15d6 a8bd da46 afbd 8fc9 b6bd
00000010: fe3d c0bd 8112 e7bd 9fe6 af3b 6c44 35bc
00000020: 03af babc 5c51 5b3d 2737 913d 485b 923c
00000030: 077c 603d 216c ca3c fdb6 893d 1b23 be3c
00000040: 6375 cfbc 4742 e93b 30c4 c0bd 9677 88bd
00000050: 9c34 8fbc 6056 e3bd 916b 01be 6770 6fbd
00000060: 83eb 4abd 0c33 96bd 7898 fdbc 9fe3 dd3b
00000070: 051b 653b 281c 16bd 459c a9bb 9084 61bd
00000080: 4e5b a9bc 6eed 573d 37d2 8cbc f193 f6bc
00000090: 7631 9cbc d463 2fbd 67f9 093b e5cb 8abd
000000a0: 802e 6fbd 7eec 85bd bd06 6bbd 4fd5 98bd
000000b0: 141a eabc 2ea4 773c a5cb 1f3d cbbb 9b3d
000000c0: efbb 2a3d 3192 313c bf79 833d 1ee3 f63a
000000d0: fa81 963b fcdd f93c 8805 08bd f4d0 bcbd
000000e0: 9b8c 9fbd 442e ebbd e527 cbbd 9e2d debd
000000f0: 27cc 94bd b8cb cfbd 8f16 a1bd 0698 5bbd
00000100: 43e1 b0bd 128c adbd dd92 47bc 20a1 a0bc
00000110: bdfc 7b3c 1a6d d73d 6efd ea3d 62c8 1f3e
00000120: ca76 97bd c855 02be 4f9b 2fbd 770f cdbd
00000130: f36c 12be e445 d7bd 994d ebbc bc3e cfbd
00000140: edd2 b9bd 7f4a 0bbc 0395 10bb 2531 18bd
00000150: 9cb5 59bc 0acf c2bc 5ec0 08bd d972 82bc
00000160: 6437 d53b 866b 2abc c3c6 c73c b00b 693d
00000170: 2ad2 dbbb 9ec8 a93d 8ea6 923d 5602 ef3d
00000180: 73e2 f83d dc03 1c3e 30c0 b23d c9f1 d63d
00000190: 2f30 373e af79 aa3d a6ed 563e be96 8a3e
000001a0: dddb 433e 4205 0f3e ab7b 3d3e 983d 003e
000001b0: 8500 cd3a 74ac d8bc f961 03bd f6bd e0bc
000001c0: 1e6d b2bc b2d0 42bc f8b6 39bc 6787 ddbb
000001d0: 8275 63bc 71e5 043d 4cfe 4d3d 9ccf 313c
000001e0: 67ec 7c3d 042c 223c e21f 253d ba32 043c
000001f0: f660 bbbc 3c2b 96ba 2854 b5bc 72c2 31bd
00000200: 284a 74bd 846f 183d 4b25 203c bdb0 3a3c
00000210: 6b89 573d cb2d 0c3d 6ffb c03c 0774 163d
00000220: 22d9 90bb 2c78 1fbc 3da4 b63d 95dd c13c
00000230: d2ec dbbc ca52 b03c 2be4 09bc 273b 8abc
00000240: b42b e0bc b068 80bd e11b 4fbd 136d 0f3c
00000250: 4d05 0dbd 618c 92bd a1c2 893c 3768 b6bc
00000260: 8783 d6bd 8a3c 81bc 67c0 52bd c3f8 37bd
00000270: 082d 2dbd 7f28 fe3b d454 113d 2fdf 00bd
00000280: 3f42 fc3c 5814 6f3d 8d60 123c 42d2 f13c
00000290: 8006 72bd 7ded 143d 489b b33d cf8d a43d
000002a0: c57d 353d 44d8 193e a202 fd3d 08f2 003d
000002b0: 9781 39bd afd6 29bd 7a00 ccbc 1c43 9abd
000002c0: 52d5 9fbd 468c 073d 6d32 433b 71e4 20bd
000002d0: 104c 173d 2f94 adbd 8b9b 32bd 1ace 813d
000002e0: 461c 9cbd a8b0 06be bb0c 9a3d 5ea0 873d
000002f0: 5d69 20bd 1961 d43c dbb9 a13d 9650 e43c
00000300: 171b 663d 7111 b43d ce62 663d 15a9 88bb
00000310: a3f0 663d 2115 773d d155 e63b cad2 fe3c
00000320: 5cc5 333c 3fea 233d 933d 1b3d cc34 66bb
00000330: fea5 5a3d 305a a03d 8c13 433d 5c2c c1bc
00000340: 3d7e 8838 46ce 153d 0acc 2bbd e5d8 08bd
00000350: 3c6d b3bc 35e5 e9bc 99fc 26bc c935 c33b
00000360: 905e 5fbc e76b 13bd 081c a0bc 085e bbbc
00000370: 8056 7bbc 873c 71bc 983c 5fb8 0d79 423d
00000380: 8443 893c cd00 26bc a7b3 b5bc 365e 9abd
00000390: e2cc 843d eabb 0ebb 9a4e 56bd 1a78 2d3c
000003a0: 98aa ad3b 5f0e 3ebd 3bcd 163e a6c3 093e
000003b0: a3ce 353d e3c2 df3d 0ffb 233e 7795 043e
000003c0: da4b 803d 0fb1 373e c58f 0f3e 1093 eabb
000003d0: 4659 90bc f574 32bd 2ce4 683b 445c bfbd
000003e0: 1221 a7bd 1754 39bd bf2f 83bc a219 5bbd
000003f0: ebef 2abd af5f 21bd 3b63 35bc 3465 f5bc
-0.06680215 -0.08243958 -0.08558436 -0.08925163 -0.09386824 -0.11282826 0.0053680683 -0.011063676
-0.02278853 0.053544387 0.070905976 0.017865792 0.05480578 0.024709763 0.06724355 0.023210099
-0.025324529 0.0071184966 -0.0941242 -0.06663434 -0.01748114 -0.11100459 -0.1263869 -0.058456805
-0.049541008 -0.07333955 -0.030956492 0.0067715193 0.0034958732 -0.036647946 -0.0051760995 -0.055058062
-0.02067342 0.052716665 -0.017190082 -0.03009984 -0.019066554 -0.042819813 0.0021053196 -0.06777171
-0.058393955 -0.06539248 -0.057379473 -0.074625604 -0.028576888 0.015114827 0.03901257 0.07604178
0.041683134 0.010838077 0.064197056 0.0018835997 0.004593131 0.030501358 -0.0332084 -0.09219542
-0.0779049 -0.11483434 -0.09919719 -0.108485445 -0.072655015 -0.10146278 -0.07865631 -0.053611778
-0.08636715 -0.08473982 -0.012181011 -0.01960808 0.015380082 0.10518856 0.11474119 0.15603784
-0.07395704 -0.12728035 -0.042872723 -0.10012715 -0.14299373 -0.105113775 -0.028723525 -0.101193875
-0.09073434 -0.008501648 -0.0022061474 -0.037156243 -0.013287928 -0.023780365 -0.03338658 -0.015923904
0.006506847 -0.010401612 0.02438677 0.05689591 -0.006708403 0.08290218 0.07160674 0.116703674
0.12152567 0.15235847 0.08728063 0.104953356 0.17889474 0.083239906 0.20989093 0.27068132
0.1912684 0.1396685 0.18504207 0.12523496 0.0015640414 -0.02644942 -0.032075856 -0.02743433
-0.021780547 -0.011890577 -0.011335127 -0.006760526 -0.0138829965 0.032445375 0.050291345 0.010852721
0.06174889 0.009898189 0.04031361 0.008068735 -0.022873383 -0.0011456977 -0.022134855 -0.043398328
-0.059641033 0.037215725 0.009774516 0.011394677 0.052621286 0.03422336 0.023557393 0.036731746
-0.0044204155 -0.009733241 0.08918045 0.023665229 -0.026846323 0.021523852 -0.008416216 -0.01687391
-0.02736459 -0.062699676 -0.050563697 0.008754033 -0.034428883 -0.071556814 0.01681644 -0.02226649
-0.104743056 -0.015775938 -0.05145302 -0.044914972 -0.042279273 0.0077562924 0.03548129 -0.031462844
0.030793307 0.05836901 0.008934152 0.029519204 -0.05908823 0.0363593 0.08769852 0.0803486
0.044309396 0.15023905 0.12354018 0.03148082 -0.045289602 -0.041464504 -0.024902571 -0.07532331
-0.078043595 0.03309276 0.0029784695 -0.03928036 0.036937773 -0.084755294 -0.04360537 0.06338139
-0.0762258 -0.13153327 0.075219594 0.066223845 -0.039162982 0.025925206 0.07896777 0.027870458
0.05617818 0.08792389 0.05624657 -0.004170547 0.056381833 0.060322884 0.007029273 0.031106371
0.010972347 0.040018316 0.03790052 -0.0035126684 0.05338096 0.07829702 0.047626063 -0.023580723
6.508499e-05 0.03657367 -0.041942634 -0.03340997 -0.021902673 -0.028551677 -0.01019206 0.0059573394
-0.013633385 -0.035991576 -0.019544616 -0.022871986 -0.015340447 -0.0147239035 -5.3223775e-05 0.047478724
0.016755827 -0.010132027 -0.022180391 -0.075375006 0.06484391 -0.0021779486 -0.052321054 0.0105877165
0.0052998774 -0.046400424 0.14726727 0.1345354 0.044386517 0.109258436 0.1601374 0.12947641
0.062644675 0.17938636 0.14019687 -0.0071586445 -0.017620694 -0.04356857 0.0035536392 -0.0934377
-0.081606045 -0.04524621 -0.016013978 -0.053491242 -0.04173271 -0.03939789 -0.011071022 -0.029955484

layer2.0.bn1.weight f4 [32]
00000000: 7647 893e 1637 8e3e 2547 7e3e a684 a73e
00000010: e8bb 793e aae0 883e 739b 803e 0d67 9b3e
00000020: c64e 903e 8435 ba3e 5acc 943e 839d c63e
00000030: dc5e a63e b0ac 913e 85a5 993e 2490 9e3e
00000040: f8f3 e73e fa6d a33e 4365 a13e ddd7 8c3e
00000050: 5d38 8d3e 485a 923e a040 683e eff9 eb3e
00000060: e50e aa3e 8ad7 3a3e fa17 b03e 6ac8 843e
00000070: a89b bc3e 495c a13e 72a6 703e 3c88 a13e
0.26812333 0.27776402 0.24831827 0.3271839 0.24388087 0.26733905 0.25118598 0.3035206
0.281851 0.36368954 0.29062158 0.38792047 0.32494247 0.28452063 0.30009094 0.30969346
0.4530332 0.31919843 0.3152257 0.2750844 0.27582064 0.28584504 0.22680902 0.46089122
0.3321449 0.18246284 0.34393293 0.25934154 0.36837506 0.3151572 0.23500994 0.3154925

layer2.0.bn1.bias f4 [32]
00000000: 6f3a 463e 4d18 30bd 72a2 4cbc 595f 7b3d
00000010: e627 b73c ee41 0d3e b86a 463d f42a 7c3d
00000020: d917 01bd 4088 c9bd 8212 113d bcc3 523c
00000030: 73d1 afbc c94e 9b3c 0cb0 313e 4b3c 63bd
00000040: bf19 a2bd ef97 f8bd bab6 1f3c bef6 47bd
00000050: 95f1 28bd f8a9 10bd 2af4 a53e 61b2 87bd
00000060: dc5b 2bbe 6a64 0abd 9b8b 933d 505a ce3b
00000070: 6c76 ffbc 5d9d 373d 78f3 003d 552c e7bd
0.19358228 -0.042991925 -0.012489902 0.061370227 0.022357892 0.13794681 0.04844162 0.0615644
-0.031516884 -0.09840441 0.03541804 0.0128640495 -0.021462178 0.018958466 0.17352313 -0.05547742
-0.07915067 -0.12138354 0.009748155 -0.048819296 -0.041246016 -0.035318345 0.32412845 -0.0662582
-0.1673426 -0.03378717 0.07204362 0.006297387 -0.031184398 0.044827808 0.03148219 -0.112877525

layer2.0.bn1.running_mean f4 [32]
00000000: 85be d5bb e195 05bd f26e 0dbe 3859 c7be
00000010: ffd0 273f 5c32 87be 836b b0bc ed41 8ebe
00000020: 35cc 913d 4ba0 9cbf c1ba 11bf 6bb7 f5be
00000030: 6973 923d b81f 253f 2d39 98be 807f 11be
00000040: 872e 07bf 0017 c1be 7ee5 77be dfcf 04be
00000050: 0d9c 973e b276 ef3d 5585 03bf 1a82 01bf
00000060: 7c3f 17be d590 743d b9fc 00bf bbf7 203e
00000070: ebfd ee3e 54a8 ca3e 7959 093e 7cf0 3ebe
-0.006522956 -0.03261364 -0.13811854 -0.38935256 0.6555328 -0.2640561 -0.02153564 -0.27784672
0.071190275 -1.2236418 -0.5692559 -0.479915 0.07150919 0.64501524 -0.29731122 -0.14208794
-0.5280537 -0.3771286 -0.24208638 -0.12969922 0.29611245 0.11692561 -0.51375324 -0.50589144
-0.14770311 0.059708435 -0.50385624 0.15719502 0.466781 0.3958155 0.13413037 -0.18646425

layer2.0.bn1.running_var f4 [32]
00000000: b3c3 9b3e fd99 493e 2b27 3d3e 1c4d 823e
00000010: cfdc 293e 2246 223e e4b2 f33d 4bf2 7f3e
00000020: fdb8 033e 6020 173e b2bc 223e b425 a33e
00000030: 1f8f 0d3e fa15 543e 58c3 493e 65ce 5b3e
00000040: fc21 943e 3c45 093e 5297 603e c7e4 f83d
00000050: 1268 013e 6bef 163e 84e3 693e 4a01 883e
00000060: 5c42 1c3e 8c17 8a3d 9821 893e 9e1e c43d
00000070: c7b8 253e c9ca 613e 0e8f f13d 092d 283e
0.30422744 0.19687648 0.18471973 0.25449455 0.16588138 0.15847066 0.11899355 0.24994771
0.12863536 0.14758444 0.15892294 0.31864703 0.13824128 0.20711508 0.19703424 0.21465452
0.28932178 0.13405317 0.21932724 0.12153011 0.12637356 0.14739768 0.22840697 0.26563483
0.15259689 0.067427725 0.26783442 0.09576152 0.16183768 0.22050013 0.11794864 0.1642343
